Final_RL_Weights/DDQN_V2_Q_target.pth (torch, 14370 bytes, 6 tensors)

fc_1.weight f4 [64, 3]
00000000: cfba 0340 4e00 ba3f d978 203f 9bc9 38bf
00000010: 319f 3b3f 08aa 853e 2867 89be 63b2 a13f
00000020: 5210 923e f220 3cbf 0b35 a6bf dd0a 8cbe
00000030: 78a1 8d3f 356d 0340 c3a7 d23e 7c99 013f
00000040: b977 dd3e 1583 183f f5c0 323e c3ee cebf
00000050: cd49 3ebe 6395 ec3e 54db 65bf 1b8e d2be
00000060: 03d2 3ebf e730 1540 75ba 153f 5170 14bf
00000070: f3b7 0cc0 d2cf ebbe 64ff 14c0 1881 0f40
00000080: 8bcc 3c3f f6b2 0ebf 95ce a73f 0246 61be
00000090: 2d74 90bf b36e a93f c749 cf3e 6b2d 95be
000000a0: 5586 32c0 aa57 16bf dc25 84bf 5a31 013f
000000b0: 1683 97be fa88 8e3f 8c45 02c0 1b5f 94be
000000c0: c303 48bf 3adc 0c3f c894 253f 4844 94bd
000000d0: 39f9 0ec0 acaf a6be 8fca 9fbf 354c b23f
000000e0: 40cb c73e ec7f 68bf 3ba6 4c3f 0128 65be
000000f0: 39c3 24bf 83fa e93f 0217 4abc 58a7 8ebf
00000100: 2ebd 8fbf 4fe3 cbbe 6277 a2bf dee6 253f
00000110: 534b b93e 5aa1 bcbf d97b 273e d69e 09bf
00000120: 2fa2 b5bf f56d 873f a79f cf3e c33d 5c3f
00000130: 1b6b a03f 100f ea3e ada3 56bf b87b 1f40
00000140: 52e5 db3e db76 e8be af6e f83e 3bea 593f
00000150: 6fdb 053f 24b1 c93e 651a 0cbf 92d6 0b3e
00000160: 730a d8bf eb07 533e 5e33 1c3f 28ae e23f
00000170: 1b45 123e a9a5 20bf b9ce 46bf 11ac 47bf
00000180: 74ad aa3c 16e4 36bf 8129 053f 96dd 893e
00000190: a76c 5a3e 9fe9 5d3c 96ba d0bf ffc2 1740
000001a0: f52f 0f3f f578 9dbe 70e6 1cc0 d235 d9be
000001b0: 2f18 bbbf 7124 ea3f cedd 013f 8358 06c0
000001c0: 6b98 8abf 3741 3abf d3fe e8be 284b 80c0
000001d0: 48b6 59bf 4094 46bf 80d8 1c3f e4db a53e
000001e0: b9ef 8cbf d763 e8be c03a d1be 9cd2 c0bf
000001f0: 6339 aebf 6748 c0be b4f4 15bf 8bde 7cbf
00000200: 7bc9 64bb be59 33bf b4d9 e33f 423d 243f
00000210: e36b 6cbf 600b e1bf bc6f 1bbf 4740 efbe
00000220: 1739 4fbf ef33 943e d307 ce3f d2c4 fb3c
00000230: 8779 d83e 9a5d afbf 0b4d e2be e2ad d2bd
00000240: aea4 53bf cea1 a0bd 08a1 523e d1e7 aebe
00000250: 771b 2c40 4edd 1b3f ddd2 7cbf cb0f 38c0
00000260: 6c0c dfbe 28d7 713e 6c87 dfbf 3301 8ebe
00000270: 0476 6ebf 510f ae3f 8f4f 98bd 8160 fabf
00000280: 975c 7cbf ab09 88be 4e3e 9cbe 3ffc 6fbf
00000290: ac2d 1b3d d27e 1abf 9047 7abf 7025 ad3d
000002a0: 4655 133f 2bf1 db3f 5a08 543f f1d6 0b3d
000002b0: 7bc5 8dbc ec82 a93d 94c5 a1bf 0522 0cbf
000002c0: 3fc6 c8be 1cd7 36bf 943c b33f 2693 fd3e
000002d0: 60e8 54bf 1c40 45be 2e2d 99be 634a 6ebf
000002e0: 70a9 c23f e9cd 3ebe 479a 1dbe ac00 34bf
000002f0: 781c e5bc 4c4a 903f 7e4f 74bf aa91 31bf
2.058277 1.4531343 0.626844 -0.72182626 0.7328978 0.26106286 -0.26836514 1.2632564
0.28528076 -0.7348777 -1.2984937 -0.27352038 1.1064901 2.0535405 0.41143617 0.50624824
0.43255404 0.59575015 0.1745642 -1.6166614 -0.1858284 0.46207723 -0.89787793 -0.41124043
-0.745392 2.3311098 0.58487636 -0.5798388 -2.1987274 -0.46056992 -2.3280878 2.2422543
0.7374961 -0.5574182 1.3109919 -0.21999362 -1.1285454 1.3236908 0.40485975 -0.29136214
-2.789449 -0.58727515 -1.0324054 0.5046593 -0.29592198 1.1135552 -2.0354948 -0.2897881
-0.7813074 0.5502354 0.6468015 -0.07239586 -2.2339613 -0.32555902 -1.2483691 1.3929507
0.39022255 -0.90820193 0.7994115 -0.22378542 -0.64360386 1.8279575 -0.012334587 -1.1144819
-1.1229608 -0.3982186 -1.2692683 0.648054 0.3619028 -1.473674 0.16355838 -0.5375799
-1.419012 1.0580431 0.40551493 0.8603174 1.2532686 0.45714617 -0.838435 2.4919262
0.42948395 -0.4540318 0.48521945 0.8512303 0.52287954 0.3939296 -0.54727775 0.13656071
-1.6878189 0.20608489 0.6101588 1.7709398 0.14284174 -0.6275278 -0.77659184 -0.7799693
0.020834662 -0.7144178 0.52016455 0.2692687 0.2133051 0.013544469 -1.6306942 2.3712766
0.5593255 -0.30756345 -2.4515648 -0.42423874 -1.4616755 1.8292371 0.5072907 -2.0991523
-1.0827764 -0.7275576 -0.45506915 -4.0091743 -0.85043764 -0.7756996 0.6126785 0.32394326
-1.1010658 -0.45388672 -0.40865135 -1.5064273 -1.3611263 -0.3755524 -0.5857651 -0.98777074
-0.003491013 -0.7005881 1.7800813 0.6415597 -0.9235212 -1.7581596 -0.6071737 -0.46728727
-0.8094649 0.28945872 1.6096138 0.0307335 0.42280218 -1.370044 -0.44199404 -0.10287072
-0.82673156 -0.07843362 0.20569241 -0.34161237 2.6891763 0.6088456 -0.9875925 -2.875964
-0.43564165 0.23617232 -1.7463202 -0.2773529 -0.9314883 1.3598424 -0.074370496 -1.9560701
-0.9857878 -0.26569876 -0.30516285 -0.9374427 0.037885353 -0.6034976 -0.97765446 0.08454406
0.5755199 1.7182974 0.82825243 0.03414053 -0.01730608 0.082769245 -1.2638421 -0.5473941
-0.3921375 -0.7142198 1.4002862 0.49526328 -0.83167076 -0.19262737 -0.29917282 -0.93082255
1.5207958 -0.18633236 -0.15390883 -0.70313525 -0.027967677 1.1272674 -0.95433795 -0.6936289

fc_1.bias f4 [64]
00000000: 207e a2bf e834 a83f b439 443f 06b5 db3e
00000010: 144a e0be 3bc9 8fbe 7ff9 943e 881b 4f3f
00000020: bae5 6f3e d17f fabe ae21 143f 2523 2abe
00000030: 28e6 2a3f 465b f2be a0fb 72bf c86b 0f3f
00000040: 8e65 57bf 716a 313e 7a0f 023f 4faf 513f
00000050: 72d1 2ebf af5e a83f 7931 893f d60b 973e
00000060: 3f17 6c3f 88d4 873f 66fc 9c3e 578f 12be
00000070: fca1 903f e9f6 c33e c374 133f 2c1b af3d
00000080: 9ac1 1a3e 883d 19bf a354 f7be adc1 41bd
00000090: 44b7 223f 447f 743f 1dac 8bbf 041b b93f
000000a0: 8ef2 9e3f bbb8 643f dc2e 113f 9db4 08bf
000000b0: 5836 80bf 082d 143f fcbe a23f 0c11 acbe
000000c0: 6622 763f 4b50 a6be 9030 5dbf 5d38 f73e
000000d0: 9801 683f 9236 43bf 9fe1 413f c57d 493f
000000e0: d8d6 e33e 7982 823f a063 7d3f e8db 6cbf
000000f0: ae93 7f3f c4f0 db3e 81c9 a53f c3d7 943e
-1.269474 1.3141146 0.7665055 0.42911547 -0.43806517 -0.28083214 0.290966 0.80901384
0.23427477 -0.4892564 0.5786389 -0.16614969 0.6675744 -0.4733526 -0.949152 0.56023836
-0.84139335 0.1732576 0.50804865 0.81908125 -0.6828834 1.3153895 1.0718223 0.29501218
0.9222297 1.0611734 0.30661315 -0.14312492 1.1299434 0.38274315 0.5760004 0.085501045
0.15112916 -0.59859514 -0.4830676 -0.047303844 0.6356089 0.9550669 -1.09119 1.446137
1.2417772 0.89344376 0.56712127 -0.53400594 -1.0016584 0.5788121 1.2714534 -0.33606756
0.9614624 -0.32483134 -0.86402225 0.4828519 0.9062743 -0.7625514 0.75734895 0.78707534
0.4449985 1.0196067 0.9898014 -0.9252305 0.99834716 0.42957127 1.2952119 0.29070863

fc_2.weight f4 [32, 64]
00000000: 4cc9 8f3f 782b 5f3e d77a 043d ee14 c43e
00000010: 29d1 ac3e 5cdc d73d 8393 ad3e d752 603e
00000020: 4729 1d3f 5673 c5bf 4f93 26bf 2877 cf3e
00000030: 6db7 c33e 4723 b33e 3e0d 65bf 2e0d 933e
00000040: b9d1 95be da3a 8a3e 82a4 013e b972 003f
00000050: f1fb 54bf ae79 223f 6840 d43e ec43 d9be
00000060: c355 163f e39d f43d d980 903e 07b1 e4be
00000070: 6dd6 0dbf 8d12 68bf bcef 2cbf afb9 563e
00000080: 5233 2bbf f77d 0e3e aa91 20bf aee1 b03e
00000090: b60e d23e 7e25 3bbf 3fde 87bd 0bac e93e
000000a0: 5b04 083f e4aa e23e 4459 153f 633d 88be
000000b0: 90a5 d0be 0268 cc3e 3609 bbbe 4371 213f
000000c0: 344b aa3e 12fa 093f 6425 3abf 3bbd b13e
000000d0: e60e d53e 6b16 54bf e3e0 a93e 923a eb3e
000000e0: c4fb 17be ddcf 703e 0ed1 e33e 6fca 76be
000000f0: 8cd2 003f be81 0b3f 9844 f63d c8f9 cd3e
00000100: 4cc4 a23f e643 9c3e 928e 883d ca2a ad3e
00000110: 84db c73e 2069 a73e bc37 d13e b3bc 963e
00000120: 2e31 443f e553 98bf a3b1 45bf bea4 b83e
00000130: 7f78 093f 5e64 1e3f 578e 2bbf 12e6 913e
00000140: 5b25 51be 6d57 853e d7e0 7b3e 247e 0e3f
00000150: ec51 50bf cf2c 243f fe6c 093f 2caf fcbe
00000160: 68a1 0f3f ac60 5e3c a73e e23e 8419 00bf
00000170: 5a21 f6be 23a1 62bf 5b87 2ebf f0d8 623c
00000180: eed6 24bf f41d 133d d699 88bf 1aba d43e
00000190: 5d20 0d3f 4f2f 28bf 12fc 7a3e a468 0b3f
000001a0: 6afe 3d3f e00d 033f 2ad9 0e3f 5e17 2ebf
000001b0: d6c2 c8be e1b0 983e 3f88 10be 250f 143f
000001c0: 1c79 673e a4e6 c03e 2a4f d5be fdaf 873e
000001d0: 74b7 fe3e 6798 5bbf af74 b93e f0e5 f53e
000001e0: 2227 1cbe a89b ab3e 3f71 113f 3b4d cfbe
000001f0: 6fa3 223f f97a 283f 70c5 823e 8f58 063e
00000200: 6c89 dbbd 3118 7c3d 1eeb f1bc 8d33 6ebd
00000210: 2fd4 8cbd e308 103d 3c42 643c 4350 cebd
00000220: b600 b4bd 4067 7e3c aea7 893c af93 04bd
00000230: 8d33 6ebc d0f2 efbd 128f 30be 3875 9d3d
00000240: 69ad fc3c 68db 93bd 03c5 9f3d 121c 7fbb
00000250: 4645 063d bf58 8cbc e99f b83d c340 db3d
00000260: f742 1c3d 386a a33d 83c5 08be 3c74 e43b
00000270: 7eb7 b7bc 6a98 f3bb e608 023d 1395 08be
00000280: a79e 01be 10bc ca3d a339 4bbd 1fc8 543d
00000290: 8434 9cbd 42d7 043e f898 efbb 30dc ac3c
000002a0: 5bb3 9a3d 20bc 16bc 9a03 febc d946 783d
000002b0: d30f c03d 5fe3 c4bd ced5 c63a 36d9 443d
000002c0: c665 32bd 705e 10be 4dc6 613c 3ba0 ccbd
000002d0: 4d7c e5bd 86f7 babd 2871 06bd 3225 bebd
000002e0: e60a 01be 6f5a 993d 37cd 86bd bf2b c7bd
000002f0: d0b2 80bc d898 223c 0f74 4fbd 1b63 05be
00000300: 16c2 873f 36e2 92bc 4265 5ebe f612 cc3e
00000310: 7266 b33e a54f ea3b b6f0 f13e 1d86 993e
00000320: f702 483f 71ba cebf 0fe0 1abf ee28 133e
00000330: 8355 113f 1722 103f 7e00 36bf 0530 0c3f
00000340: 5db9 d3be 73e7 993e 8ee6 373e 61bc 063f
00000350: 5860 4ebf a144 393f 38d9 253f 80dd cbbe
00000360: 590b 073f f9c3 223e c6a3 9f3e f45a babe
00000370: 841e ccbe 31d5 82bf e44d 18bf 906c a63e
00000380: a07a febe 06c4 0dbd 59e4 1fbf 5363 e73e
00000390: 4c48 e13e be4c 48bf f4a9 f1bd 074d df3e
000003a0: 43c1 db3e 4c36 053f 4cdd fd3e 9e31 f9be
000003b0: f8bc 5fbe 3087 013f bc2b b2be 8d9b 373f
000003c0: dcd7 bc3e 696b 123f e4b2 08bf bb6d 113f
000003d0: 184d 763d ae20 ecbe b552 7f3e a581 e53e
000003e0: f866 81be 45be 833d c91b 0c3f 6452 44bf
000003f0: b949 e73e 6587 a73e b871 913e 60ee 403f
1.1233306 0.21793926 0.03234371 0.38297218 0.33753327 0.10540077 0.33901605 0.21906601
0.6139111 -1.5425823 -0.65068525 0.40520597 0.3822588 0.34987852 -0.8947333 0.28720993
-0.29261568 0.26998025 0.12660411 0.5017505 -0.8319693 0.6346692 0.41455388 -0.42434633
0.5872461 0.11944177 0.28223303 -0.4466631 -0.5540531 -0.90653306 -0.67553306 0.2096927
-0.66875184 0.1391524 -0.62722266 0.3454718 0.4102685 -0.73104084 -0.06634187 0.4563907
0.53131646 0.44271004 0.58339334 -0.26609334 -0.40751314 0.39923102 -0.36530465 0.6306345
0.332605 0.538972 -0.72713304 0.34714684 0.4161293 -0.8284671 0.33179387 0.45943123
-0.14842135 0.23516794 0.44495434 -0.2410066 0.5032127 0.54494846 0.12024802 0.4022963
1.2716155 0.30520552 0.06667818 0.33821708 0.39034665 0.32697392 0.40862834 0.2944084
0.7663754 -1.1900603 -0.7722418 0.36063188 0.5369949 0.618719 -0.6701407 0.28495842
-0.20424406 0.26043263 0.24597488 0.55661225 -0.81375 0.6413087 0.53681934 -0.49352396
0.5610566 0.013572853 0.44188425 -0.50038934 -0.4807232 -0.88527125 -0.68175286 0.013845667
-0.64390457 0.035917237 -1.0671947 0.41548234 0.5512751 -0.6569719 0.2451022 0.54456544
0.7421633 0.51193047 0.55800116 -0.68004405 -0.39211148 0.29822448 -0.14114474 0.5783561
0.22604793 0.37675965 -0.4166196 0.26501456 0.4974934 -0.8577942 0.36221835 0.4802699
-0.15249303 0.33517194 0.56813425 -0.4048861 0.6353063 0.6581264 0.25541258 0.1311972
-0.107195705 0.06154651 -0.029531058 -0.05815463 -0.06876408 0.035164725 0.013931807 -0.100739025
-0.08789198 0.015527546 0.016803589 -0.032367405 -0.014538658 -0.11716235 -0.17242077 0.07688373
0.030844407 -0.07219583 0.07801249 -0.0038926643 0.032780908 -0.017132161 0.090148754 0.10705712
0.0381498 0.07979244 -0.13356595 0.006971864 -0.022426363 -0.0074339407 0.031746767 -0.13338117
-0.12658177 0.09899151 -0.049615514 0.051948663 -0.07627204 0.1297274 -0.0073119365 0.021101087
0.075537406 -0.009200126 -0.031007577 0.06061444 0.09378018 -0.0961368 0.001516992 0.04805871
-0.04355409 -0.14098525 0.013780189 -0.09991499 -0.11205349 -0.091292426 -0.032822758 -0.09284438
-0.12601814 0.07487952 -0.065821104 -0.09725141 -0.015710264 0.009924136 -0.05064779 -0.13026087
1.0606105 -0.017930131 -0.21718314 0.39858216 0.35039097 0.0071506076 0.4725396 0.29985133
0.78129524 -1.6150647 -0.60498136 0.14371082 0.56771106 0.56302017 -0.710945 0.5476077
-0.41352358 0.30059394 0.17959043 0.52631193 -0.8061576 0.72370344 0.64784575 -0.3981743
0.5275169 0.1589507 0.31179637 -0.36397517 -0.39867032 -1.0221311 -0.5949385 0.32504702
-0.4970293 -0.03461077 -0.62457806 0.45192966 0.4400047 -0.782421 -0.11799994 0.43613455
0.42920884 0.52035975 0.495829 -0.48670667 -0.2184943 0.50596905 -0.34798992 0.71721727
0.36883438 0.57195145 -0.53397965 0.5680806 0.060132116 -0.46118683 0.24933894 0.44825473
-0.2527387 0.064327754 0.54729897 -0.7668822 0.45173433 0.32720485 0.28407073 0.7536373

fc_2.bias f4 [32]
00000000: 5fc5 5e3e 3869 ac3e c030 1bbe 66d3 063e
00000010: e312 a03e f256 fdbd b784 013e 8ccd 013e
00000020: 73f2 ae3d 193c 3f3d c748 203e ae8c 0d3f
00000030: 7728 98bd 559c a5bd 35ce 9f3e da83 05bf
00000040: 194d f53e 1d1b 3d3e e6d5 3dbd 4122 6cbd
00000050: eca6 423e 9a0c 30be 69bb dc3f aaa8 023b
00000060: c37e b33e d9ca 9d3e 7f38 bf3e 4628 623e
00000070: d887 133e 2012 91bd cc6a 0f3e 1940 cb3a
0.21754979 0.33674026 -0.15155315 0.1316658 0.3126441 -0.12370099 0.12648283 0.12676066
0.08542337 0.046688173 0.15652762 0.55292785 -0.07429593 -0.080864586 0.3121201 -0.52154315
0.47910383 0.18467374 -0.046346568 -0.057649855 0.19008988 -0.17192307 1.7244693 0.0019936957
0.3505765 0.30818823 0.3734779 0.22085676 0.14407289 -0.07083535 0.14005584 0.0015506773

fc_out.weight f4 [17, 32]
00000000: 3a01 1dbf 5cc6 16bf 94a8 e43d 772c 3ebf
00000010: 4f9a 80be 4125 b83a 38bb d6bf 7098 72bf
00000020: 86a0 21bf e6f1 00bd 0558 c0be 1ab0 7cc0
00000030: da24 a1bf 9049 2d3c b0b7 18bf 893b 383f
00000040: e189 46bf 3e76 97bf 0685 cb3d 0432 12bc
00000050: 54fe 3abf e65a 453d 6b85 6e40 e9af adbd
00000060: 5b8d 05bf 56e3 01bd 8afa a7bd b8f2 30bd
00000070: 0a86 86be 0a56 a73d fbdb 02bf c722 6dbf
00000080: 9195 0fbf 49d4 05bf 9232 35bc 1206 50bf
00000090: 8e01 cebe 389e 12be b88d 9cbf 7935 80bf
000000a0: d02d 28bf bc41 a23d a071 94be c623 42c0
000000b0: 5a36 a0bf 8dfc b2bc e3e7 33bf d79b 493f
000000c0: d9aa 38bf 81d0 14bf 66c0 0b3e f502 7d3d
000000d0: ab24 37bf 2e24 883b 1909 7340 3f07 4b3d
000000e0: bd56 29bf 0a8e f4bd 76b8 cebe cb83 1dbe
000000f0: 5b37 97be e052 87bc 5258 0fbf ff29 4bbf
00000100: bffd cebe e98c 1ebf f46d 273d 28ec 25bf
00000110: 39a8 b7be 46ca 0d3e 4ec4 84bf 81b5 8cbf
00000120: 6ae9 c6be 9f60 1f3e bb6b 83be d27c 21c0
00000130: 3fb5 a3bf 0273 c3bd 330d 6abf f7ad 4c3f
00000140: f53f 66bf 74a4 8fbf ff0e 113e 0372 d83d
00000150: 6a77 b3be b955 353d 0b87 6540 834c 983d
00000160: 1f78 fbbe b1bd e8be 991d e2be e09b f6be
00000170: 7d5b c6be ffc9 cfbd 3e1d c4be e206 13bf
00000180: 607b d9be 855f c1be 3135 b33d a201 10bf
00000190: 42e8 bcbe 3ba4 9c3c f622 54bf 458e 9ebf
000001a0: a27e d6be d693 35be 55d8 c4be bb54 9ebf
000001b0: 60b8 b6bf 6cfb a13c 42f9 2cbf 5579 653f
000001c0: 0750 61bf 72e5 41bf 4324 cdbd 9caa a93d
000001d0: ada1 17bf 8ce2 d5bd 0d44 5640 3385 07bd
000001e0: 011e efbe 1de3 02bf babc 0cbf 9005 2fbf
000001f0: f49f d2be 412f aebd d2db 18bf 4415 0fbf
00000200: 55b1 2bbf 35cc b8be 9ff0 47be 2286 28bf
00000210: aa56 14bf 3cf3 ec3d e210 82bf 6c27 46bf
00000220: 32dc 13bf 5ebf 0a3e d526 9cbe 5ec6 d7bf
00000230: 6cde afbf f345 9dbc eb59 10bf efbb 573f
00000240: c13e 5dbf 31fa 32bf eae3 75ba f74f 9e3d
00000250: 50c7 0abf de62 4f3d a79d 6440 96b6 833d
00000260: fc0c 23bf c4ad febe 0eb3 05bf 9f1a eabe
00000270: f60d febe ae03 833c 3146 d1be 4bf4 febe
00000280: 7e94 27bf 9f99 0cbf 2a5c fcbd d558 31bf
00000290: 5874 28bf 3683 0a3e 90df 3cbf 549f 54bf
000002a0: 8451 1fbf 2080 e03c b969 04bf 1776 d2be
000002b0: d829 c4bf 4f6a da3c c9f2 eebe 4654 743f
000002c0: 9497 33bf 9194 e0be d8b1 e23d b639 37be
000002d0: 5588 e7be aa3f 073d db79 5640 c760 80bd
000002e0: 1d91 14bf 59ae 92be c6b4 24bf f21f 2abf
000002f0: ec89 e4be 5440 13be 6f0b 0fbf 08cc 0dbf
00000300: 727d 40bf 0ba1 e8be 0cce e73d a12e febe
00000310: 95db c4be f0e3 99bd e97f 2dbf dd85 31bf
00000320: 945f 2bbf b4e2 9fbd bc8b debe 3c67 6bbf
00000330: 74fc b4bf 9088 6fbd ff53 33bf 9147 683f
00000340: c445 65bf 65c2 00bf 9566 efbc baa5 093e
00000350: b61d b7be 2a26 c5bc a9e0 5b40 6740 983d
00000360: 2c12 1fbf 4760 ebbe 38bf 12bf 455e 1abf
00000370: 8962 2ebf 80b9 43bb e31b 07bf fb33 13bf
00000380: 0576 14bf 0f1c f7be f592 be3d f257 38bf
00000390: 1cea adbe afe7 8fbd 1604 35bf 2336 52bf
000003a0: ae5e 1cbf 2b00 c3bd 0ec3 ffbe 463b debe
000003b0: 43db bbbf 656e ef3d 2db7 37bf 68d3 623f
000003c0: 190c 2ebf 3a47 e4be 9879 e23c eaaa 8b3d
000003d0: b0c8 d0be 60cb a13d 355e 5540 1d32 bb3d
000003e0: 1401 55bf f5d4 1dbf a07a 14bf 46e0 04bf
000003f0: 1f6f 13bf 6e54 ef3d 3ff7 07bf fb42 b6be
-0.61329997 -0.5889642 0.11164966 -0.742866 -0.25117728 0.0014049188 -1.6775885 -0.9476385
-0.63135564 -0.031480692 -0.37567154 -3.9482484 -1.2589371 0.010576621 -0.59655285 0.71965843
-0.77554137 -1.183296 0.099374816 -0.0089230575 -0.73044324 0.04818239 3.7268932 -0.08480818
-0.52168816 -0.031710945 -0.082020834 -0.043200225 -0.2627414 0.081707075 -0.51116914 -0.9263119
-0.56087595 -0.52277046 -0.01105942 -0.8125926 -0.4023556 -0.14318168 -1.2230749 -1.0016319
-0.65694904 0.07922694 -0.2899294 -3.0334334 -1.2516587 -0.021848941 -0.70275706 0.7875342
-0.7213569 -0.5813065 0.13647613 0.0617704 -0.71540326 0.0041547036 3.7974303 0.049567457
-0.6614798 -0.11941154 -0.40375108 -0.15382306 -0.2953442 -0.01651901 -0.5599414 -0.79360956
-0.40427968 -0.6193376 0.040876344 -0.6481347 -0.3587053 0.13846692 -1.0372407 -1.0992891
-0.38849956 0.15564202 -0.2566813 -2.5232434 -1.2789687 -0.095434204 -0.9142639 0.7995295
-0.8994134 -1.1222062 0.14165877 0.10568621 -0.35052043 0.044271205 3.5863674 0.074364685
-0.49115083 -0.45457223 -0.44163206 -0.48165798 -0.38741675 -0.101459496 -0.3830356 -0.5743238
-0.4247694 -0.37768188 0.0875038 -0.5625249 -0.3689595 0.01912128 -0.82865846 -1.2387167
-0.41893488 -0.17732176 -0.38446298 -1.2369608 -1.4275017 0.019773208 -0.6756784 0.89638263
-0.8801274 -0.7574073 -0.10016682 0.08284494 -0.5923107 -0.10443601 3.3479035 -0.033086013
-0.4670258 -0.511278 -0.54975474 -0.6836786 -0.4113766 -0.08505107 -0.5971042 -0.55891824
-0.6706746 -0.36093298 -0.19525383 -0.6582967 -0.5794474 0.11569831 -1.0161402 -0.77403903
-0.57757866 0.13549563 -0.30498376 -1.6857412 -1.3739753 -0.019198393 -0.56387204 0.8427114
-0.8642388 -0.6991301 -0.000937997 0.07730096 -0.54210377 0.050631396 3.5721223 0.0643131
-0.6369169 -0.49741948 -0.5222634 -0.45723435 -0.49620026 0.015992966 -0.40873864 -0.49795756
-0.65460956 -0.5492191 -0.123222664 -0.6927617 -0.65802526 0.13526616 -0.7377863 -0.83055615
-0.6223376 0.027404845 -0.5172382 -0.4110572 -1.532527 0.02666202 -0.46669605 0.9544109
-0.70153165 -0.43863347 0.11069077 -0.17893109 -0.452212 0.0330197 3.3511875 -0.06268459
-0.58033925 -0.28648642 -0.6433834 -0.66454995 -0.44636476 -0.14380008 -0.5587682 -0.5538945
-0.75191414 -0.45435366 0.11318597 -0.4964495 -0.38448778 -0.07514179 -0.677733 -0.69344884
-0.66942716 -0.07806912 -0.43465984 -0.919544 -1.4139543 -0.058479846 -0.7005004 0.907342
-0.8955958 -0.5029662 -0.02922372 0.13442126 -0.35764855 -0.02406605 3.4355872 0.07434159
-0.62137103 -0.4597189 -0.57323027 -0.60300094 -0.681191 -0.0029865205 -0.52776927 -0.5750119
-0.57992584 -0.48263595 0.093053736 -0.72009194 -0.33967674 -0.07026612 -0.7070936 -0.82113856
-0.6108197 -0.095215164 -0.49953502 -0.43404597 -1.4676288 0.11690978 -0.7176388 0.8860383
-0.6798721 -0.44585592 0.027645871 0.06819709 -0.40778112 0.07900119 3.333875 0.09140418
-0.8320477 -0.6165307 -0.5799961 -0.51904714 -0.5759143 0.116860256 -0.5311164 -0.35597977

fc_out.bias f4 [17]
00000000: fe94 dd3e b1c3 d1be e3c1 293e 25c1 083d
00000010: d27a 8dbe 6bef d1be 92b4 4ebe 55d4 eebd
00000020: 2a47 54be a6cc 8cbe 8efd 03bf dbfd e8be
00000030: b6a2 d6be 4341 d1bd 74b0 4fbe 4002 52be
00000040: c918 9cbd
0.43277735 -0.40969613 0.16577868 0.033387322 -0.27632767 -0.41002974 -0.2018607 -0.11661593
-0.20730272 -0.27499884 -0.5155877 -0.45506176 -0.41921014 -0.10217526 -0.20282155 -0.20508671
-0.07621915
