Final_RL_Weights/DDQN_V2_Q_online.pth (torch, 14370 bytes, 6 tensors)

fc_1.weight f4 [64, 3]
0	0x4003b247	2.0577562
1	0x3fb9da86	1.4519813
2	0x3f20df24	0.62840486
3	0xbf38737f	-0.72051233
4	0x3f3b423b	0.73147935
5	0x3e8640da	0.26221353
6	0xbe892c39	-0.26791552
7	0x3fa19915	1.2624842
8	0x3e924ff5	0.28576627
9	0xbf3c301e	-0.7351092
10	0xbfa624a3	-1.2979931
11	0xbe8c2f17	-0.27379677
12	0x3f8d8f4c	1.1059356
13	0x40036432	2.0529904
14	0x3ed327b2	0.41241223
15	0x3f01ec07	0.50750774
16	0x3edcf840	0.4315815
17	0x3f188f06	0.59593236
18	0x3e325aa3	0.17417388
19	0xbfcf01b4	-1.6172395
20	0xbe3d7c5e	-0.18504474
21	0x3eed6f21	0.46373847
22	0xbf661bad	-0.8988598
23	0xbed21139	-0.41028765
24	0xbf3fae1c	-0.74875045
25	0x40154b2e	2.3327136
26	0x3f1593e7	0.58428806
27	0xbf14c83a	-0.5811802
28	0xc00cb1b5	-2.1983464
29	0xbeebcbd7	-0.46053955
30	0xc014da3f	-2.3258207
31	0x400f62e9	2.240412
32	0x3f3d1a23	0.73868006
33	0xbf0e0792	-0.554803
34	0x3fa786f3	1.3088058
35	0xbe60dbe8	-0.21958888
36	0xbf90b4ca	-1.1305172
37	0x3fa99e46	1.3251426
38	0x3eced294	0.40395033
39	0xbe945f81	-0.28979114
40	0xc032f1b5	-2.7960026
41	0xbf1558e6	-0.58338773
42	0xbf83d7fc	-1.0300288
43	0x3f01c25c	0.50687194
44	0xbe979058	-0.29602313
45	0x3f8e9c76	1.1141498
46	0xc0024395	-2.0353749
47	0xbe93c364	-0.2886001
48	0xbf473be4	-0.7782576
49	0x3f0ccd6b	0.5500094
50	0x3f25e132	0.64796746
51	0xbd945173	-0.07242098
52	0xc00f04fd	-2.2346795
53	0xbea5d649	-0.3239005
54	0xbfa04908	-1.2522287
55	0x3fb2a7b6	1.3957431
56	0x3ec6f198	0.38856196
57	0xbf681753	-0.9066059
58	0x3f4cf447	0.8006024
59	0xbe651d5a	-0.22374478
60	0xbf23e42e	-0.6402005
61	0x3fea2f1f	1.829563
62	0xbc6d37e4	-0.014478657
63	0xbf8eb696	-1.1149471
64	0xbf8fa398	-1.12218
65	0xbecbbb3f	-0.39791295
66	0xbfa25fbb	-1.2685465
67	0x3f25c858	0.64758825
68	0x3eb9b01a	0.36267167
69	0xbfbca786	-1.4738624
70	0x3e255700	0.16146469
71	0xbf09768d	-0.5369652
72	0xbfb5d225	-1.4204756
73	0x3f876b76	1.057967
74	0x3ecfb027	0.4056408
75	0x3f5c6fd3	0.8610813
76	0x3fa0517f	1.2524871
77	0x3eea4585	0.45756164
78	0xbf578170	-0.8418188
79	0x401fa8c0	2.4946747
80	0x3edb18ac	0.4279226
81	0xbee8afde	-0.45446676
82	0x3ef9adc3	0.48765382
83	0x3f59ed45	0.8512767
84	0x3f05ded4	0.52293134
85	0x3ec9eded	0.39439335
86	0xbf0c1ca7	-0.5473122
87	0x3e0cd88d	0.13754483
88	0xbfd84a08	-1.6897593
89	0x3e51d866	0.20492706
90	0x3f1c40c8	0.6103635
91	0x3fe2d0ac	1.7719932
92	0x3e123541	0.14278127
93	0xbf201207	-0.6252751
94	0xbf4733ac	-0.7781322
95	0xbf47b8c2	-0.78016293
96	0x3caff4be	0.021479007
97	0xbf36b94b	-0.71376485
98	0x3f054913	0.5206463
99	0x3e89dd88	0.26926827
100	0x3e5a6c88	0.21330464
101	0x3c5de935	0.01354437
102	0xbfd07750	-1.6286411
103	0x4017db45	2.3727582
104	0x3f0ef263	0.558386
105	0xbe9b8bf3	-0.3038021
106	0xc01cf0af	-2.4521902
107	0xbed92a2d	-0.4241499
108	0xbfbbcee8	-1.4672518
109	0x3fea9223	1.8325847
110	0x3f014b18	0.5050521
111	0xc0067d9f	-2.1014173
112	0xbf8a9484	-1.0826573
113	0xbf3a0f60	-0.7267971
114	0xbeeb8bee	-0.46005195
115	0xc0805625	-4.0105157
116	0xbf59062d	-0.8477505
117	0xbf467484	-0.7752154
118	0x3f1d5ffe	0.614746
119	0x3ea5a110	0.32349443
120	0xbf8cf3db	-1.1011919
121	0xbee7a442	-0.45242506
122	0xbed11c52	-0.4084192
123	0xbfc13bf2	-1.5096419
124	0xbfae7872	-1.3630507
125	0xbebf7f5a	-0.3740185
126	0xbf15e9d9	-0.5855995
127	0xbf7d394f	-0.9891557
128	0xbb313d1a	-0.0027044476
129	0xbf3346ed	-0.700301
130	0x3fe3e0a0	1.7802925
131	0x3f2434c7	0.6414303
132	0xbf6b7fa4	-0.9199164
133	0xbfe137f4	-1.75952
134	0xbf1ba963	-0.6080534
135	0xbeeef1b4	-0.4666878
136	0xbf4efa8f	-0.8085107
137	0x3e94ed0a	0.29087096
138	0x3fce16a0	1.6100655
139	0x3cfdb27c	0.030968897
140	0x3ed7e717	0.42168495
141	0xbfafa250	-1.3721409
142	0xbee24ac8	-0.4419768
143	0xbdd1224e	-0.10211621
144	0xbf53d93d	-0.82753354
145	0xbda4f35e	-0.08054231
146	0x3e52cceb	0.20585983
147	0xbeaff891	-0.3436933
148	0x402c106a	2.6885018
149	0x3f1c2cb5	0.6100572
150	0xbf7e214f	-0.99269575
151	0xc037d17c	-2.872161
152	0xbee042c8	-0.4380095
153	0x3e7304a1	0.23732235
154	0xbfdf58d6	-1.7448986
155	0xbe8e7d57	-0.27830002
156	0xbf6e5267	-0.93094486
157	0x3fadeb37	1.3587407
158	0xbd9c300b	-0.07626351
159	0xbffa4224	-1.9551435
160	0xbf7dd030	-0.99145794
161	0xbe874809	-0.26422146
162	0xbe9c87a7	-0.30572245
163	0xbf702d12	-0.9381877
164	0x3d1546da	0.036444522
165	0xbf1aeb16	-0.6051496
166	0xbf7a3813	-0.9774181
167	0x3dab30b0	0.08358896
168	0x3f131696	0.5745634
169	0x3fdbce7b	1.7172388
170	0x3f544933	0.82924193
171	0x3d11e84a	0.03562192
172	0xbc98597a	-0.018597353
173	0x3daaf109	0.08346755
174	0xbfa21da9	-1.2665302
175	0xbf0b944b	-0.5452315
176	0xbec8801b	-0.39160237
177	0xbf35f225	-0.7107261
178	0x3fb31ed0	1.3993778
179	0x3efe5164	0.4967147
180	0xbf54e7e9	-0.83166367
181	0xbe44426c	-0.19165963
182	0xbe992569	-0.29911354
183	0xbf6e49d2	-0.9308139
184	0x3fc27a61	1.5193597
185	0xbe3e3a3d	-0.18576904
186	0xbe1c4867	-0.15261994
187	0xbf34732a	-0.70488226
188	0xbcdcc2c4	-0.02694834
189	0x3f905614	1.1276269
190	0xbf745db6	-0.9545549
191	0xbf318e30	-0.69357586

fc_1.bias f4 [64]
0	0xbfa265b4	-1.2687287
1	0x3fa83ff5	1.3144518
2	0x3f4454c3	0.76691836
3	0x3edb37e7	0.42816088
4	0xbee09913	-0.43866786
5	0xbe8f7b79	-0.2802389
6	0x3e9486bb	0.2900904
7	0x3f4f9e66	0.8110107
8	0x3e6dff95	0.23242028
9	0xbefa9017	-0.48938057
10	0x3f1473bc	0.57989097
11	0xbe2c1575	-0.1680506
12	0x3f2aa7c3	0.66662234
13	0xbef16c67	-0.47153017
14	0xbf728ee3	-0.9474928
15	0x3f0f3bf1	0.5595084
16	0xbf575725	-0.84117347
17	0x3e317350	0.17329144
18	0x3f02096d	0.5079563
19	0x3f51d259	0.8196159
20	0xbf2eac39	-0.6823154
21	0x3fa866e6	1.3156402
22	0x3f893914	1.0720544
23	0x3e986ff3	0.2977291
24	0x3f6be9d1	0.9215365
25	0x3f87ea1d	1.0618321
26	0x3e9cd9d4	0.3063494
27	0xbe126fe4	-0.14300495
28	0x3f909edb	1.1298479
29	0x3ec3d698	0.3824966
30	0x3f136d69	0.5758882
31	0x3dad519f	0.084628336
32	0x3e1aa04f	0.15100215
33	0xbf193d7f	-0.5985946
34	0xbef75b1f	-0.48311707
35	0xbd500982	-0.050790317
36	0x3f224873	0.633918
37	0x3f751981	0.9574204
38	0xbf8c07d8	-1.0939894
39	0x3fb91eaa	1.4462483
40	0x3f9ef586	1.2418678
41	0x3f6477e5	0.89245445
42	0x3f11064b	0.5665023
43	0xbf084c36	-0.5324129
44	0xbf7ffe9e	-0.9999789
45	0x3f13f951	0.578023
46	0x3fa2ef5a	1.2729294
47	0xbeab7b19	-0.33492354
48	0x3f757962	0.9588834
49	0xbea735f5	-0.32658353
50	0xbf5db67c	-0.86606574
51	0x3ef694f7	0.48160526
52	0x3f683ce2	0.907179
53	0xbf430984	-0.76186395
54	0x3f420bbc	0.75799155
55	0x3f499b54	0.78752637
56	0x3ee3d550	0.44498682
57	0x3f828613	1.0197166
58	0x3f7d2752	0.98888123
59	0xbf6c2fdf	-0.92260545
60	0x3f7f8e36	0.9982637
61	0x3edc2a31	0.4300094
62	0x3fa5d02c	1.2954154
63	0x3e94db7e	0.2907371

fc_2.weight f4 [32, 64]
0	0x3f8fc6b6	1.1232517
1	0x3e5f7d08	0.2182504
2	0x3d074a2c	0.03302972
3	0x3ec3ae3b	0.38218865
4	0x3ead45bd	0.3384227
5	0x3dd89369	0.10574991
6	0x3ead5afa	0.33858472
7	0x3e6079a7	0.21921407
8	0x3f1d66a3	0.61484736
9	0xbfc58007	-1.5429696
10	0xbf268050	-0.6503954
11	0x3ecddc7a	0.40207273
12	0x3ec3f91c	0.38275993
13	0x3eb3191c	0.34980094
14	0xbf651f1a	-0.8950058
15	0x3e932f1a	0.28746873
16	0xbe95b0d6	-0.29236478
17	0x3e89e231	0.26930383
18	0x3e026c95	0.12736733
19	0x3f00344c	0.500798
20	0xbf553a24	-0.8329184
21	0x3f223b2c	0.6337154
22	0x3ed481f9	0.4150541
23	0xbed9db1f	-0.4254999
24	0x3f1674e9	0.5877214
25	0x3df552fd	0.119787194
26	0x3e910924	0.28327286
27	0xbee4c6de	-0.44682974
28	0xbf0de4a5	-0.5542701
29	0xbf683cc1	-0.90717703
30	0xbf2ce87f	-0.6754226
31	0x3e560a72	0.20902422
32	0xbf2b3475	-0.6687692
33	0x3e0e7dfe	0.1391525
34	0xbf205246	-0.6262554
35	0x3eb0b0d0	0.34509897
36	0x3ed27069	0.41101387
37	0xbf3b93a5	-0.7327216
38	0xbd88389e	-0.06651424
39	0x3ee9d743	0.45672044
40	0x3f07a446	0.52985036
41	0x3ee2423c	0.44191158
42	0x3f15295a	0.5826622
43	0xbe87d8e9	-0.26532677
44	0xbed12eb8	-0.40855956
45	0x3ecc3e9e	0.39891523
46	0xbebad0ef	-0.3648753
47	0x3f21546b	0.63019437
48	0x3eaa43b5	0.3325478
49	0x3f0a450d	0.54011613
50	0xbf3a5d98	-0.7279906
51	0x3eb183c4	0.34670842
52	0x3ed481e0	0.41505337
53	0xbf543e89	-0.8290792
54	0x3ea9bfa7	0.33154032
55	0x3eeb0291	0.45900396
56	0xbe170918	-0.14749563
57	0x3e70e30a	0.23524109
58	0x3ee31f1d	0.44359675
59	0xbe7557b0	-0.23959231
60	0x3f00754e	0.5017899
61	0x3f0afada	0.5428902
62	0x3df5c282	0.1199999
63	0x3ecdfb0e	0.40230602
64	0x3fa2ba0a	1.2713025
65	0x3e9c370b	0.30510744
66	0x3d88b249	0.0667463
67	0x3ead6e77	0.3387334
68	0x3ec8047c	0.3906592
69	0x3ea7a61a	0.32743913
70	0x3ed17f94	0.40917647
71	0x3e97231d	0.29518977
72	0x3f443dbd	0.76656705
73	0xbf98249d	-1.1886173
74	0xbf45cf7e	-0.7726973
75	0x3eb7882f	0.35846087
76	0x3f096f67	0.5368561
77	0x3f1ec4e6	0.62019193
78	0xbf2b2c10	-0.6686411
79	0x3e921ca3	0.28537473
80	0xbe51424a	-0.20435444
81	0x3e85b27f	0.26112744
82	0x3e7be1f8	0.24597919
83	0x3f0e7aa8	0.5565591
84	0xbf5095f0	-0.81478786
85	0x3f243cd1	0.641553
86	0x3f096fa0	0.5368595
87	0xbefc9025	-0.49328724
88	0x3f0f9b7d	0.5609663
89	0x3c5b18e8	0.013372637
90	0x3ee27077	0.4422643
91	0xbf002853	-0.5006153
92	0xbef5eee2	-0.48033816
93	0xbf62addc	-0.8854654
94	0xbf2e9e7e	-0.6821059
95	0x3c730b6a	0.014834264
96	0xbf24c1f5	-0.64358455
97	0x3d131e22	0.03591741
98	0xbf889b31	-1.0672361
99	0x3ed54156	0.4165141
100	0x3f0d1f7b	0.5512616
101	0xbf284935	-0.65736705
102	0x3e7c9298	0.24665296
103	0x3f0b63d0	0.54449177
104	0x3f3defcc	0.74194026
105	0x3f032a52	0.5123645
106	0x3f0eedf9	0.5583187
107	0xbf2e098d	-0.67983323
108	0xbec895ab	-0.39176688
109	0x3e988656	0.2978999
110	0xbe1064e5	-0.14100988
111	0x3f1446fa	0.579208
112	0x3e673284	0.22577864
113	0x3ec131de	0.37733358
114	0xbed4eca2	-0.41586787
115	0x3e87d52b	0.26529822
116	0x3efe4491	0.49661687
117	0xbf5b5079	-0.85669667
118	0x3eb9835a	0.36233026
119	0x3ef5d5b4	0.48014605
120	0xbe1bb5cb	-0.15206067
121	0x3eab85ec	0.33500612
122	0x3f116bfe	0.5680541
123	0xbeceec3c	-0.40414608
124	0x3f2291b9	0.63503605
125	0x3f2819ec	0.65664554
126	0x3e82c46b	0.2554048
127	0x3e06c5c5	0.1316138
128	0xbddb89af	-0.107196204
129	0x3d7c17e5	0.061546225
130	0xbcf1eb42	-0.029531125
131	0xbd6e338b	-0.058154624
132	0xbd8cd44a	-0.068764284
133	0x3d100894	0.03516443
134	0x3c644211	0.013931767
135	0xbdce506d	-0.10073934
136	0xbdb400ee	-0.0878924
137	0x3c7e6740	0.015527546
138	0x3c89a780	0.016803503
139	0xbd0493b6	-0.03236743
140	0xbc6e33c3	-0.014538708
141	0xbdeff2ac	-0.11716208
142	0xbe308f53	-0.17242174
143	0x3d9d7556	0.07688396
144	0x3cfcad31	0.030844303
145	0xbd93dba8	-0.072196305
146	0x3d9fc497	0.078011684
147	0xbb7f1c06	-0.0038926615
148	0x3d0644f3	0.0327806
149	0xbc8c590a	-0.0171323
150	0x3db89fd9	0.090148635
151	0x3ddb4067	0.10705643
152	0x3d1c429c	0.03814946
153	0x3da369db	0.07979175
154	0xbe08c5a0	-0.13356638
155	0x3be473f2	0.0069718296
156	0xbcb7b7a2	-0.02242643
157	0xbbf39875	-0.007433946
158	0x3d02087c	0.031746373
159	0xbe08954d	-0.13338204
160	0xbe019ef7	-0.12658297
161	0x3dcabc10	0.09899151
162	0xbd4b39c9	-0.049615655
163	0x3d54c7e3	0.05194844
164	0xbd9c34b3	-0.07627239
165	0x3e04d6ea	0.12972608
166	0xbbef98cb	-0.0073119155
167	0x3cacdbee	0.021100964
168	0x3d9ab31c	0.07553694
169	0xbc16bc30	-0.009200141
170	0xbcfe03d2	-0.031007681
171	0x3d78469c	0.060614213
172	0x3dc0100d	0.093780614
173	0xbdc4e3a2	-0.0961373
174	0x3ac6d580	0.0015169829
175	0x3d44d8cc	0.048058316
176	0xbd326610	-0.043554366
177	0xbe105eb3	-0.14098625
178	0x3c61c65a	0.013780201
179	0xbdcca034	-0.09991494
180	0xbde57c97	-0.11205404
181	0xbdbaf7a4	-0.09129265
182	0xbd067128	-0.032822758
183	0xbdbe2563	-0.09284475
184	0xbe010afb	-0.12601845
185	0x3d995a46	0.074879214
186	0xbd86cd6b	-0.06582149
187	0xbdc72be6	-0.0972517
188	0xbc80b301	-0.015710356
189	0x3c2298a7	0.0099240905
190	0xbd4f743d	-0.050647963
191	0xbe05633b	-0.13026135
192	0x3f8796b5	1.0592867
193	0xbc9775cc	-0.018488787
194	0xbe5ec577	-0.21755014
195	0x3ecc5603	0.39909372
196	0x3eb31a12	0.34980828
197	0x3bd2f7cb	0.0064382306
198	0x3ef20f62	0.4727736
199	0x3e99aa8c	0.3001293
200	0x3f480d18	0.7814498
201	0xbfceb20d	-1.6148087
202	0xbf1af772	-0.6053382
203	0x3e107d7b	0.14110367
204	0x3f11559a	0.5677124
205	0x3f105a5d	0.56387883
206	0xbf35c8b2	-0.7100936
207	0x3f0c37da	0.5477272
208	0xbed3ad00	-0.41342926
209	0x3e9a2d34	0.30112612
210	0x3e382db4	0.17986184
211	0x3f068e42	0.5256082
212	0xbf4ec3e1	-0.8076764
213	0x3f3951fa	0.7239071
214	0x3f25e167	0.6479706
215	0xbecc022f	-0.39845416
216	0x3f070eac	0.5275676
217	0x3e222ab1	0.15836598
218	0x3e9fa1ac	0.31178033
219	0xbeba9abe	-0.36446184
220	0xbecc3903	-0.39887246
221	0xbf82db94	-1.022326
222	0xbf18a15a	-0.596212
223	0x3ea68079	0.32519892
224	0xbefe72ac	-0.49696863
225	0xbd0dc3a4	-0.034610406
226	0xbf1fe8d5	-0.6246465
227	0x3ee7c07e	0.45264047
228	0x3ee1679a	0.44024354
229	0xbf487257	-0.7829947
230	0xbdf04d4f	-0.117334954
231	0x3edf0586	0.43558902
232	0x3edb836a	0.42873698
233	0x3f054fbc	0.5207479
234	0x3efe016c	0.4961046
235	0xbef94383	-0.4868432
236	0xbe5f663d	-0.21816345
237	0x3f017cee	0.5058125
238	0xbeb245c6	-0.34818858
239	0x3f37cf5d	0.71800786
240	0x3ebc99be	0.36836046
241	0x3f12611c	0.5717943
242	0xbf089ea0	-0.5336704
243	0x3f1178eb	0.5682513
244	0x3d711989	0.058862243
245	0xbeebbe0e	-0.46043438
246	0x3e7f8d74	0.24956304
247	0x3ee59b1c	0.44844902
248	0xbe818c2d	-0.25302258
249	0x3d82a791	0.06379617
250	0x3f0c060a	0.54696715
251	0xbf444854	-0.76672864
252	0x3ee708fd	0.45124045
253	0x3ea66e8d	0.3250622
254	0x3e915529	0.28385285
255	0x3f4115a8	0.7542367

fc_2.bias f4 [32]
0	0x3e5eb42f	0.21748422
1	0x3eac5a57	0.33662674
2	0xbe1b3114	-0.1515544
3	0x3e0657ad	0.13119383
4	0x3ea00d56	0.31260175
5	0xbdfd571b	-0.1237013
6	0x3e01a763	0.12661509
7	0x3e014fdd	0.12628122
8	0x3dae632c	0.08515009
9	0x3d3f3be3	0.04668797
10	0x3e201dcc	0.15636367
11	0x3f0d8636	0.55282915
12	0xbd9675a0	-0.07346654
13	0xbda59c66	-0.08086471
14	0x3e9fb937	0.31195995
15	0xbf05b507	-0.5222935
16	0x3ef543a1	0.4790316
17	0x3e3d0810	0.18460107
18	0xbd3dd5e7	-0.04634657
19	0xbd6c2243	-0.057649862
20	0x3e424d89	0.1897489
21	0xbe300cd7	-0.17192398
22	0x3fdcc768	1.7248354
23	0x3b02a859	0.0019936769
24	0x3eb36533	0.35038146
25	0x3e9dbb96	0.3080718
26	0x3ebf10d2	0.3731752
27	0x3e61d2c7	0.22053061
28	0x3e134763	0.143827
29	0xbd911231	-0.07083548
30	0x3e0ef5f5	0.13961013
31	0x3aaa1953	0.0012977518

fc_out.weight f4 [17, 32]
0	0xbf1d27d0	-0.61388874
1	0xbf16f41a	-0.5896622
2	0x3de4a83f	0.11164903
3	0xbf3e72e6	-0.7439407
4	0xbe80d536	-0.25162667
5	0x3ab824df	0.0014049074
6	0xbfd7097e	-1.6799772
7	0xbf7362a5	-0.95072395
8	0xbf220753	-0.63292426
9	0xbd00f20c	-0.031480834
10	0xbec08207	-0.37599203
11	0xc07c97eb	-3.9467723
12	0xbfa11902	-1.2585757
13	0x3c2d4960	0.010576576
14	0xbf191abf	-0.59806436
15	0x3f387c01	0.72064215
16	0xbf468b83	-0.7755663
17	0xbf97b497	-1.1851987
18	0x3dcb84d3	0.099374436
19	0xbc123200	-0.008923054
20	0xbf3b5a31	-0.73184496
21	0x3d455a9d	0.04818212
22	0x406e8d82	3.727387
23	0xbdadb016	-0.08480851
24	0xbf05a360	-0.52202415
25	0xbd0409d8	-0.03223595
26	0xbda91ab9	-0.0825705
27	0xbd34801f	-0.0440675
28	0xbe871dd6	-0.2638995
29	0x3da7560a	0.081707075
30	0xbf030132	-0.511737
31	0xbf6d91a3	-0.9280035
32	0xbf0f7dfc	-0.5605161
33	0xbf05a5e6	-0.52206266
34	0xbc35328e	-0.011059416
35	0xbf502702	-0.8130952
36	0xbecd467c	-0.40092838
37	0xbe129e70	-0.14318252
38	0xbf9cdd3c	-1.2255015
39	0xbf8071b4	-1.00347
40	0xbf283ac0	-0.65714645
41	0x3da24191	0.07922662
42	0xbe9378e7	-0.2880318
43	0xc042657e	-3.0374446
44	0xbf9f6140	-1.2451553
45	0xbcb2fc1f	-0.021848736
46	0xbf33f579	-0.70296437
47	0x3f4b6454	0.79449964
48	0xbf38ed31	-0.72236925
49	0xbf150bdb	-0.58221215
50	0x3e0bbffc	0.13647455
51	0x3d7d0287	0.06176999
52	0xbf37134f	-0.7151384
53	0x3b8823d3	0.004154661
54	0x40733f48	3.8007374
55	0x3d4b0793	0.04956777
56	0xbf295e4e	-0.6615952
57	0xbdf06ec7	-0.11739879
58	0xbece4eb3	-0.40294418
59	0xbe1cb41b	-0.1530308
60	0xbe96bbf3	-0.2944027
61	0xbc8752e0	-0.01651901
62	0xbf0f268d	-0.559182
63	0xbf4b3ca5	-0.7938941
64	0xbecf907b	-0.40539917
65	0xbf1edc64	-0.6205504
66	0x3d276db4	0.040876105
67	0xbf267f1d	-0.6503771
68	0xbeb7f106	-0.35926074
69	0x3e0dc9f8	0.13846576
70	0xbf84c761	-1.0373346
71	0xbf8c7028	-1.0971727
72	0xbec6baf6	-0.38814515
73	0x3e1f6094	0.15564185
74	0xbe834e63	-0.25645742
75	0xc021b3c5	-2.5265973
76	0xbfa374e8	-1.2770052
77	0xbdc372f3	-0.09543409
78	0xbf6a2c4e	-0.91473854
79	0x3f4c7f58	0.7988181
80	0xbf66a5a8	-0.9009652
81	0xbf8fdcbf	-1.1239241
82	0x3e110edb	0.14165823
83	0x3dd871db	0.10568591
84	0xbeb491e4	-0.35267556
85	0x3d355571	0.044270936
86	0x406539e7	3.581659
87	0x3d984c64	0.07436445
88	0xbefc7571	-0.4930835
89	0xbee9200d	-0.45532265
90	0xbee27cbe	-0.44235796
91	0xbef739ca	-0.48286277
92	0xbec64abc	-0.38728893
93	0xbdcfca46	-0.101460025
94	0xbec4dc4f	-0.38449332
95	0xbf13796f	-0.5760717
96	0xbed7f694	-0.42180312
97	0xbebfdc28	-0.37472653
98	0x3db3351a	0.08750363
99	0xbf0efe57	-0.5585684
100	0xbebc0d73	-0.3672901
101	0x3c9ca40c	0.019121192
102	0xbf537827	-0.8260521
103	0xbf9e5aa0	-1.2371407
104	0xbed4b344	-0.4154302
105	0xbe35941b	-0.17732279
106	0xbec42794	-0.38311446
107	0xbf9e29bc	-1.2356486
108	0xbfb7c301	-1.4356385
109	0x3ca1fb49	0.019773142
110	0xbf2c228d	-0.6724022
111	0x3f65623d	0.89603025
112	0xbf6092fa	-0.8772427
113	0xbf409c87	-0.7523884
114	0xbdcd2439	-0.100166745
115	0x3da9aa6f	0.08284461
116	0xbf168974	-0.58803487
117	0xbdd5e2a9	-0.104436226
118	0x40564780	3.348114
119	0xbd07855e	-0.033086173
120	0xbeedcb93	-0.46444377
121	0xbf025a6e	-0.50919235
122	0xbf0c06cc	-0.5469787
123	0xbf2e2d4f	-0.68037885
124	0xbed0e471	-0.40799287
125	0xbdae2f3c	-0.08505103
126	0xbf181c7e	-0.59418476
127	0xbf0def0f	-0.554429
128	0xbf2bd766	-0.67125547
129	0xbeb8c0dd	-0.36084643
130	0xbe47f0b4	-0.19525415
131	0xbf28ed00	-0.65986633
132	0xbf145a39	-0.5795017
133	0x3decf311	0.11569799
134	0xbf8203a6	-1.0157363
135	0xbf4616f7	-0.7737879
136	0xbf13c1f0	-0.577178
137	0x3e0abf35	0.13549502
138	0xbe9c025d	-0.30470553
139	0xbfd84a4c	-1.6897674
140	0xbfb007f3	-1.3752426
141	0xbc9d45e3	-0.019198364
142	0xbf103f20	-0.5634632
143	0x3f57e582	0.84334576
144	0xbf5d160f	-0.86361784
145	0xbf32fe57	-0.6991934
146	0xba75e40e	-0.0009379991
147	0x3d9e4f98	0.07730025
148	0xbf0b13dc	-0.5432718
149	0x3d4f62ba	0.050631262
150	0x406492e5	3.5714657
151	0x3d83b669	0.06431276
152	0xbf231ec4	-0.6371882
153	0xbefee142	-0.49781233
154	0xbf05c9a8	-0.5226083
155	0xbeea6bf5	-0.4578549
156	0xbefe19a0	-0.49628925
157	0x3c830389	0.015992897
158	0xbed194c0	-0.409338
159	0xbeff4f35	-0.49865118
160	0xbf27a863	-0.6549131
161	0xbf0c4187	-0.54787487
162	0xbdfc5c66	-0.12322311
163	0xbf310b02	-0.6915742
164	0xbf28a242	-0.65872586
165	0x3e0a82d8	0.13526475
166	0xbf3dbd59	-0.74117047
167	0xbf555371	-0.83330446
168	0xbf1f6ca6	-0.6227516
169	0x3ce07fce	0.027404692
170	0xbf04a534	-0.5181458
171	0xbed08cc9	-0.4073241
172	0xbfc4459b	-1.5333742
173	0x3cda6a2a	0.026661951
174	0xbeefb602	-0.46818548
175	0x3f74e62d	0.9566372
176	0xbf337c6e	-0.7011174
177	0xbee04acc	-0.43807065
178	0x3de2b192	0.11069025
179	0xbe3739ba	-0.17893115
180	0xbee708da	-0.4512394
181	0x3d073f84	0.033019558
182	0x40569e07	3.3533952
183	0xbd80608f	-0.06268417
184	0xbf1454d8	-0.5794196
185	0xbe925bd8	-0.28585696
186	0xbf2481ea	-0.64260733
187	0xbf29d450	-0.6633959
188	0xbee41980	-0.44550705
189	0xbe134083	-0.14380078
190	0xbf0edcbb	-0.5580556
191	0xbf0dbafd	-0.55363446
192	0xbf4069c3	-0.7516138
193	0xbee6d38c	-0.45083272
194	0x3de7cdf6	0.11318581
195	0xbefc0e1a	-0.4922951
196	0xbec5aeca	-0.38609916
197	0xbd99e414	-0.075142056
198	0xbf2df9a5	-0.6795905
199	0xbf32a1d5	-0.69778186
200	0xbf2bc4d0	-0.6709719
201	0xbd9fe2ea	-0.07806952
202	0xbedfda4b	-0.43721232
203	0xbf6c31f9	-0.9226375
204	0xbfb4d0c7	-1.4126214
205	0xbd6f8828	-0.058479458
206	0xbf33be33	-0.70212096
207	0x3f6794ab	0.90461224
208	0xbf648530	-0.8926573
209	0xbeffaaed	-0.49935094
210	0xbcef66e6	-0.02922387
211	0x3e09a55d	0.13441987
212	0xbeb4c281	-0.35304645
213	0xbcc525f1	-0.024065943
214	0x405bccbc	3.434371
215	0x3d98402c	0.07434115
216	0xbf1e447a	-0.61823237
217	0xbeeacd42	-0.45859724
218	0xbf128f09	-0.57249504
219	0xbf19dfb6	-0.6010698
220	0xbf2e525f	-0.6809444
221	0xbb43b980	-0.0029865205
222	0xbf06acc1	-0.5260735
223	0xbf1289bc	-0.57241416
224	0xbf143ec9	-0.579083
225	0xbef6ab25	-0.48177448
226	0x3dbe9296	0.09305303
227	0xbf383025	-0.7194846
228	0xbead5c70	-0.33859587
229	0xbd8fe7e8	-0.070266545
230	0xbf34a9f5	-0.70571834
231	0xbf51d0c0	-0.8195915
232	0xbf1be5d4	-0.60897565
233	0xbdc3004c	-0.09521541
234	0xbeff4c77	-0.49863026
235	0xbedc91a9	-0.4307988
236	0xbfbb9d4c	-1.4657378
237	0x3def6e7b	0.11690994
238	0xbf3783e9	-0.71685654
239	0x3f6280e8	0.88477945
240	0xbf2dc531	-0.67879015
241	0xbee41105	-0.44544235
242	0x3ce2794a	0.027645726
243	0x3d8baa82	0.06819631
244	0xbed0ae6e	-0.4075808
245	0x3da1cb3e	0.079000935
246	0x405599e2	3.3375173
247	0x3dbb3204	0.09140399
248	0xbf54b3c2	-0.8308679
249	0xbf1da0ed	-0.6157368
250	0xbf145f7f	-0.57958215
251	0xbf04c0e3	-0.5185682
252	0xbf13278b	-0.5748221
253	0x3def546e	0.116860256
254	0xbf07ed27	-0.5309624
255	0xbeb6067a	-0.35551816

fc_out.bias f4 [17]
0	0x3eddb365	0.4330093
1	0xbed1df45	-0.40990654
2	0x3e277e8e	0.1635687
3	0x3d0d7004	0.034530655
4	0xbe8da480	-0.27664566
5	0xbed13f66	-0.40868682
6	0xbe4ec97d	-0.20194049
7	0xbdeb8936	-0.1150078
8	0xbe53eb4b	-0.20695226
9	0xbe8b4bbd	-0.2720622
10	0xbf03b88e	-0.51453483
11	0xbee94286	-0.45558566
12	0xbed841ba	-0.42237645
13	0xbdd35127	-0.10318213
14	0xbe4e830b	-0.20167176
15	0xbe534d48	-0.20634949
16	0xbd9c2845	-0.07624868
